model.pth (torch, 17216 bytes, 4 tensors)

linear1.weight f4 [256, 11]
0	0xbe18c2ce	-0.14918062
1	0x3e462579	0.19350232
2	0x3ea559cc	0.32295072
3	0xbe899159	-0.26868704
4	0x3d247028	0.040146023
5	0x3e60271d	0.2188992
6	0x3e25e4f6	0.16200623
7	0xbd90106a	-0.07034381
8	0xbe8d0fb0	-0.2755103
9	0x3df0aa84	0.11751273
10	0xbe32d7c0	-0.17465115
11	0x3e4302a6	0.19043979
12	0x3e6acf64	0.22930676
13	0xbe1dd463	-0.1541305
14	0xbda1c075	-0.078980364
15	0xbe87bb2b	-0.26509985
16	0xbe2e83e0	-0.17042494
17	0xbe09bcee	-0.13450977
18	0xbe91b3b7	-0.28457424
19	0x3b71d131	0.003689837
20	0xbe709ed6	-0.23498091
21	0x3e8411dd	0.2579488
22	0x3e011cea	0.12608686
23	0x3e69d60b	0.22835557
24	0x3dac54c6	0.08414607
25	0xbe958201	-0.29200748
26	0xbe93428a	-0.28761703
27	0x3e8e1e3c	0.27757442
28	0xbc8db487	-0.017297996
29	0xbdefa67c	-0.11701676
30	0xbe140e54	-0.14458591
31	0x3e0bfd4e	0.13670847
32	0xbe287efa	-0.16454688
33	0xbc83df90	-0.016097814
34	0xbde973c0	-0.11399031
35	0x3d7fc726	0.062445782
36	0xbe7263ad	-0.23670836
37	0x3d73f4b5	0.059559543
38	0x3d6360d8	0.05551228
39	0x3da366de	0.07978605
40	0xbe39154f	-0.18074535
41	0xbe859242	-0.26088148
42	0x3e748590	0.23879075
43	0x3d4fe628	0.050756603
44	0x3e726bc4	0.23673922
45	0xbd01a714	-0.03165348
46	0xbe32f1a4	-0.17474991
47	0x3d9feb88	0.07808596
48	0xbc4ba9b9	-0.012430602
49	0xbe561f47	-0.20910369
50	0x3d3ee4e9	0.046605024
51	0xbe63e8f7	-0.22256838
52	0x3d1cf18f	0.038316306
53	0x3e927c1b	0.2861031
54	0xbe39c339	-0.18140878
55	0x3e4f6cf0	0.202564
56	0xbe8fb6db	-0.28069195
57	0xbea0a45d	-0.313754
58	0x3e267722	0.16256383
59	0xbe5fbea7	-0.21850072
60	0xbe8feab1	-0.28108743
61	0xbc9cebe1	-0.019155445
62	0xbd814eff	-0.063138954
63	0x3e596f1e	0.21233794
64	0xbce17aa3	-0.027524298
65	0x3e2b7743	0.16744713
66	0x3e088d9a	0.13335267
67	0x3e7dcc2a	0.24784914
68	0xbe7874ec	-0.24263352
69	0x3cf20208	0.029541984
70	0x3df2425c	0.11829063
71	0x3df97bed	0.1218184
72	0x3e94b653	0.29045352
73	0x3e2702bf	0.16309641
74	0x3e4b6143	0.19861321
75	0xbc6d5ef1	-0.014487968
76	0xbd609051	-0.05482513
77	0xbd9dfcc6	-0.07714228
78	0xbe003322	-0.12519506
79	0xbdd73ee6	-0.10510044
80	0x3e1d7f38	0.15380561
81	0x3e91c3ab	0.28469595
82	0x3e73d586	0.23811921
83	0x3e7e9788	0.24862492
84	0xbe8f236d	-0.27956715
85	0xbc16f52e	-0.009213729
86	0x3dba2b1e	0.09090255
87	0x3dbcff52	0.09228386
88	0x3bd95f40	0.006633669
89	0x3e5f43e7	0.21803246
90	0x3e95b5e9	0.2924035
91	0xbe339acb	-0.17539518
92	0xbcdb0d9e	-0.026739892
93	0x3e9ab301	0.30214694
94	0xbce5106d	-0.027961934
95	0xbe925169	-0.28577736
96	0xbe27709c	-0.16351551
97	0xbe1a97eb	-0.15097015
98	0x3e601bc2	0.21885589
99	0x3e90c140	0.28272438
100	0xbda5cbce	-0.08095513
101	0x3dcd6977	0.100298814
102	0xbe8a04a0	-0.26956654
103	0xbe220331	-0.1582153
104	0x3e900b6f	0.28133723
105	0x3de64443	0.11243489
106	0x3e3f189a	0.18661729
107	0x3e3cb669	0.18428959
108	0xbdf2191f	-0.11821198
109	0xbbf0354e	-0.007330573
110	0xbe21303d	-0.15741058
111	0xbdd02de2	-0.101650015
112	0x3e825ca1	0.25461295
113	0xbdb406ce	-0.087903604
114	0xbe4691e4	-0.1939159
115	0xbe4b64de	-0.19862697
116	0x3d73f5a5	0.059560437
117	0xbe240c48	-0.1602031
118	0xbe637133	-0.22211151
119	0x3e0f27ac	0.13979977
120	0x3dde82a3	0.10864761
121	0x3deaaab8	0.11458343
122	0x3e6b80ab	0.22998302
123	0x3e05538a	0.13020149
124	0xbe979a08	-0.29609704
125	0xbe98a615	-0.2981421
126	0x3c20d8f2	0.009817349
127	0xbe748a2b	-0.23880832
128	0x3e113337	0.14179693
129	0xbc3e8fdf	-0.011630981
130	0x3e69a998	0.22818601
131	0x3e787fb3	0.24267463
132	0xbb2c9700	-0.002633512
133	0x3e64fe55	0.22362645
134	0xbe351cb6	-0.17686734
135	0x3d892078	0.06695646
136	0xbe3da3dd	-0.1851954
137	0xbe345b61	-0.17612983
138	0xbe2b7bc8	-0.16746438
139	0xbe73b4a3	-0.23799376
140	0xbe9121be	-0.28346056
141	0xbd8d6d48	-0.06905609
142	0x3e5781b8	0.21045578
143	0xbdab4d56	-0.0836436
144	0xbe69bf17	-0.22826801
145	0xbe8b406b	-0.27197585
146	0xbe2fd54a	-0.17171207
147	0x3e81bcbd	0.25339308
148	0xbe18b26b	-0.14911811
149	0xbe0bf2b1	-0.13666798
150	0x3e3c1cc6	0.18370351
151	0x3e354b2e	0.1770446
152	0xbe7dd1aa	-0.24787012
153	0x3e1780d1	0.14795233
154	0x3e704218	0.23462713
155	0xbe255e6e	-0.16149303
156	0x3e0c14b1	0.13679768
157	0xbe3bc685	-0.18337448
158	0xbd1cfc65	-0.03832664
159	0x3e32b3f8	0.17451465
160	0xbdc22ef4	-0.09481612
161	0x3e4bce34	0.19902879
162	0x3d72d4ee	0.059285097
163	0xbdb06c56	-0.086144134
164	0x3e9932d6	0.29921597
165	0xbc92c350	-0.017915398
166	0xbe8c4c86	-0.27402133
167	0xbdd9abb5	-0.10628454
168	0x3d498173	0.049195718
169	0x3e4a7ab0	0.19773364
170	0xbd4e4928	-0.050362736
171	0x3e908d3b	0.2823275
172	0x3e0c0b91	0.13676287
173	0x3dec220b	0.11529931
174	0x3e2649e2	0.16239122
175	0xbbdec016	-0.006797801
176	0x3db5562c	0.088543266
177	0x3dd3c0fe	0.10339545
178	0x3e49df69	0.1971413
179	0x3e4456fc	0.19173807
180	0xbd08a8be	-0.03336405
181	0xbe50ca6e	-0.20389721
182	0x3d348c0f	0.044078883
183	0x3e7d609e	0.24743888
184	0xbe552bed	-0.20817538
185	0x3954d522	0.00020297294
186	0x3db91f2f	0.09039151
187	0xbd677014	-0.05650337
188	0x3d75069c	0.059820756
189	0x3e6bafe9	0.23016323
190	0x3e7c74d9	0.24653949
191	0xbe896736	-0.26836556
192	0x3d0a5cfe	0.03378009
193	0x3e878521	0.26468757
194	0x3cbcc954	0.02304522
195	0x3e25d184	0.16193205
196	0xbe03c37a	-0.12867537
197	0xbc6c0d5d	-0.014407483
198	0x3c81af40	0.015830636
199	0xbe802a73	-0.25032386
200	0xbe5f4393	-0.21803121
201	0xbd7ed9fa	-0.062219597
202	0x3e572691	0.21010806
203	0xbd2140f8	-0.0393686
204	0xbe685ed8	-0.2269243
205	0xbdbcd87d	-0.09220979
206	0x3d6b8217	0.05749711
207	0x3e84311e	0.25818723
208	0xbe3e28a6	-0.18570194
209	0xbdfe732c	-0.12424311
210	0xbe9f9db8	-0.31175017
211	0xbe8f5812	-0.2799688
212	0x3e04d7d1	0.12972952
213	0x3d6bf199	0.057603452
214	0x3e48eeb7	0.19622312
215	0x3df70c27	0.12062865
216	0x3cf61499	0.030039119
217	0x3e97439f	0.29543778
218	0x3e2369ad	0.15958281
219	0xbe1049e8	-0.14090693
220	0xbe777a73	-0.24167804
221	0xbdb48029	-0.08813507
222	0xbe126df0	-0.1429975
223	0xbe305a18	-0.17221868
224	0x3e88d6b1	0.26726297
225	0xbe4f37d2	-0.20236138
226	0xbe2c2c5f	-0.16813801
227	0x3de468f0	0.11152828
228	0xbd95200c	-0.07281503
229	0x3e39bbc6	0.18138036
230	0xbd876e80	-0.06612873
231	0x3e7fc2d8	0.2497667
232	0x3e867a8a	0.26265365
233	0xbe9d0982	-0.30671316
234	0x3d5bc599	0.05365524
235	0x3e5cfcca	0.21580806
236	0x3d61b2e7	0.055102255
237	0x3e151807	0.14559947
238	0x3dad1767	0.08451729
239	0x3e4848c3	0.19559006
240	0x3e764991	0.24051501
241	0x3c9b36fc	0.018947117
242	0xbe82d586	-0.2555353
243	0xbe6ca6da	-0.23110524
244	0x3d5bbb3a	0.05364535
245	0x3e9843de	0.2973928
246	0x3dba0d94	0.09084621
247	0xbe40484c	-0.18777579
248	0x3e6b1deb	0.22960632
249	0xbe0ae9ac	-0.13565701
250	0x3c201f5b	0.009773101
251	0x3d8960e7	0.06707936
252	0xbdc62ea0	-0.09676862
253	0x3e99a838	0.30011153
254	0x3d6e4a68	0.058176428
255	0xbccf8e00	-0.025336266

linear1.bias f4 [256]
0	0x3e3c461c	0.1838612
1	0xbcbb23ec	-0.022844277
2	0x3e10f294	0.14155036
3	0xbde749e1	-0.11293388
4	0x3e68d25e	0.22736499
5	0x3e6aec52	0.22941712
6	0xbe8c569b	-0.27409825
7	0x3ca414fe	0.020029541
8	0xbe2ed0ab	-0.17071788
9	0x3d9648ca	0.07338102
10	0x3e2ec91f	0.17068909
11	0x3d6c5a7f	0.05770349
12	0x3e408972	0.18802431
13	0xbe8663af	-0.26247928
14	0x3ea62538	0.3245027
15	0xbe8ee926	-0.27912253
16	0x3e64b009	0.22332777
17	0x3d6283f1	0.05530161
18	0xbdbc9279	-0.09207625
19	0xbe2b4800	-0.16726685
20	0xbe36b6e0	-0.17843199
21	0x3d3d95c9	0.046285424
22	0xbe214a8a	-0.1575109
23	0xbe5bbd56	-0.21458945
24	0x3d5fab8f	0.05460697
25	0xbdec20de	-0.115297064
26	0xbe8853e9	-0.26626518
27	0xbe0613ce	-0.13093492
28	0x3d45c012	0.048278876
29	0x3e93838e	0.28811306
30	0x3e165a09	0.14682783
31	0x3e4bcb83	0.19901852
32	0xbd896e96	-0.06710546
33	0xbd37b03d	-0.04484581
34	0x3db2f13c	0.08737418
35	0x3e8a4dec	0.27012575
36	0xbd947ead	-0.07250724
37	0xbdddb19f	-0.10824894
38	0x3e1a299c	0.15054935
39	0x3ce5b2f8	0.02803944
40	0xbadb95be	-0.0016753001
41	0x3e654337	0.22388922
42	0xbc83b199	-0.016075896
43	0x3e2acfa8	0.16680777
44	0x3dfa9337	0.1223511
45	0x3e7ca79d	0.24673314
46	0xbe90dfe3	-0.28295812
47	0xbd8bef09	-0.06832702
48	0xbab9d4f1	-0.0014177841
49	0xbde4c9f6	-0.111713335
50	0x3eacd975	0.33759657
51	0xbd29b19c	-0.041429147
52	0x3e8f92d9	0.28041723
53	0x3e6420dd	0.22278161
54	0x3e6ad46c	0.22932595
55	0x3d8824dd	0.06647656
56	0x3e38c786	0.18044862
57	0x3dcb5518	0.0992834
58	0x3d467468	0.048450857
59	0xbc0e1b3b	-0.008673484
60	0x3e40fadd	0.18845697
61	0xbe4fdcab	-0.20299022
62	0xbe8ca653	-0.27470645
63	0xbdbd2a2f	-0.092365615
64	0x3e3f630e	0.1869013
65	0x3e878a55	0.26472726
66	0xbddb027e	-0.10693835
67	0xbdd7b89a	-0.10533257
68	0x3d3c0775	0.04590555
69	0xbd0faf9a	-0.035079576
70	0xbe5b3251	-0.21405913
71	0x3e5ea771	0.21743561
72	0x3d8d5f50	0.06902945
73	0xbe63dce6	-0.22252235
74	0xbe97d4f2	-0.29654652
75	0x3d96bf17	0.07360666
76	0xbe36f881	-0.17868234
77	0xbe327d3e	-0.17430589
78	0x3e5de270	0.2166841
79	0x3e53eb51	0.20695235
80	0xbe92e14c	-0.28687513
81	0xbdbae3d7	-0.09125488
82	0xbddcf082	-0.10788061
83	0x3e02783d	0.1274118
84	0xbd3fefa0	-0.046859384
85	0x3e843f1d	0.25829402
86	0x3e0c1a67	0.13681947
87	0x3e01df74	0.12682897
88	0xbe82a4ca	-0.2551635
89	0xbdb72a2e	-0.08943592
90	0xbe89c49b	-0.2690781
91	0x3e41efd7	0.18939148
92	0xbe9081eb	-0.2822412
93	0xbdb1235b	-0.08649322
94	0x3d5d59a5	0.05404057
95	0x3d31f84e	0.043449692
96	0xbb72cc63	-0.0037048094
97	0x3e70cbb1	0.23515202
98	0xbe03ef44	-0.12884241
99	0xbe0bcb91	-0.13651873
100	0x3e81f932	0.25385433
101	0x3e0415a8	0.12898886
102	0x3defc888	0.1170817
103	0xbda541c8	-0.080691874
104	0x3de8ef3c	0.11373755
105	0x3dc2b100	0.09506416
106	0x3da08b4d	0.078390695
107	0x3dfa9b95	0.12236706
108	0x3de01b68	0.10942727
109	0xbe82a067	-0.25513002
110	0x3d6f9ed6	0.058501087
111	0x3d713471	0.058887903
112	0xbda4a66f	-0.08039557
113	0x3e24df65	0.16100843
114	0x3e813909	0.25238827
115	0x3e601fcb	0.21887128
116	0xbdfb5ef3	-0.122739695
117	0xbe60465d	-0.21901841
118	0xbc85c158	-0.016327545
119	0x3e969fec	0.29418886
120	0xbe40ae7f	-0.18816565
121	0xbd4851c8	-0.048906118
122	0xbe5b55da	-0.21419469
123	0x3c545122	0.012958797
124	0x3e16086a	0.14651647
125	0xbe9a10ba	-0.30090886
126	0x3d1ed88b	0.03878073
127	0x3dfb96b7	0.12284606
128	0x3e567627	0.20943509
129	0xbe86e72e	-0.2634825
130	0x3eaa67d1	0.3328233
131	0xbe2d84ec	-0.16945237
132	0x3d474ea8	0.048658997
133	0x3da1308e	0.07870589
134	0xbe17489f	-0.14773796
135	0xbe0be2ee	-0.13660786
136	0xbe4f471a	-0.20241967
137	0x3e907667	0.28215334
138	0xbd07a22c	-0.033113644
139	0xbe3049c3	-0.17215638
140	0xbe2d2f6d	-0.16912623
141	0x3de09017	0.10964983
142	0xbc283da0	-0.010268599
143	0xbcc2fb49	-0.023801463
144	0x3d044ee0	0.032301784
145	0xbdd0a64a	-0.10187967
146	0x3e452c8c	0.19255275
147	0x3d76d978	0.060265988
148	0x3e4fa804	0.20278937
149	0xbccd4819	-0.025058793
150	0x3ddaf111	0.10690511
151	0xbd1437e7	-0.036186125
152	0xbce39530	-0.0277811
153	0x3e87b759	0.2650707
154	0x3d5f3216	0.054491125
155	0x3da84362	0.08215977
156	0x3e3ef44e	0.18647882
157	0xbe63df7b	-0.2225322
158	0xbe7ccaed	-0.24686785
159	0xbe92f06a	-0.28699046
160	0x3df568d7	0.11982887
161	0xbbf96200	-0.0076105595
162	0xbe7601ec	-0.2402417
163	0x3e88b695	0.267018
164	0xbcffdf27	-0.031234337
165	0x3de555c1	0.11197997
166	0x3e774a96	0.24149546
167	0x3db7f345	0.08981947
168	0xbe7be2f4	-0.24598294
169	0xbe898b6c	-0.26864183
170	0x3cd2b693	0.025721824
171	0xbd742eb9	-0.05961487
172	0xbe939772	-0.2882648
173	0x3c9b2397	0.018937869
174	0xbe72b7d4	-0.23702937
175	0xbce9c822	-0.028537814
176	0x3db3560c	0.087566465
177	0x3db0b9d2	0.086291924
178	0xbe26064a	-0.16213337
179	0xbe5fcd63	-0.21855693
180	0x3d03fbe4	0.032222643
181	0xbe1132ae	-0.14179489
182	0xbe1067c6	-0.14102086
183	0x3dd01db2	0.10161914
184	0xbe118a7a	-0.14212981
185	0xbe9383bf	-0.28811452
186	0x3e1eb0ce	0.15497133
187	0xbe76e440	-0.24110508
188	0x3df63ea0	0.120236635
189	0x3deed4fe	0.11661719
190	0x3e9f5302	0.31118017
191	0xbe7dba61	-0.24778129
192	0xbd00b27e	-0.031420223
193	0x3e6c2fa0	0.23065042
194	0x3e6e41c3	0.23267274
195	0x3eae15d4	0.3400103
196	0x3e558a1f	0.2085347
197	0x3e8bcdab	0.2730535
198	0xbdf9a2f1	-0.12189282
199	0x3db9b615	0.090679325
200	0xbe2fbe63	-0.1716247
201	0xbda1ec1e	-0.07906364
202	0x3e925726	0.28582114
203	0x3e7fe663	0.2499023
204	0xbda941e8	-0.08264524
205	0x3c92be78	0.017913088
206	0x3d39c061	0.045349482
207	0x3c42ad3f	0.011882125
208	0x3ea0e45d	0.31424227
209	0xba7c061e	-0.00096139486
210	0x3e323749	0.17403902
211	0x3ea09dab	0.3137029
212	0xbccbdfbf	-0.024886964
213	0xbe72ebde	-0.23722789
214	0xbddfa8b5	-0.1092085
215	0x3d3d8897	0.04627284
216	0xbe220363	-0.15821604
217	0xbe268181	-0.1626034
218	0x3dbf96de	0.093549475
219	0x3cfefb5b	0.031125715
220	0x3e798edc	0.24370903
221	0xbe7ec9cf	-0.24881671
222	0xbdfa2042	-0.12213184
223	0x3e86df9e	0.2634248
224	0x3d6968f0	0.05698484
225	0x3e138ded	0.14409609
226	0xbdd7bd71	-0.1053418
227	0xbe739447	-0.23787032
228	0x3dfeb92b	0.12437662
229	0xbde0cabc	-0.109761685
230	0xbe56fcc5	-0.20994861
231	0x3dc86da9	0.09786541
232	0x3e6cdd6a	0.23131338
233	0xbe380816	-0.17971835
234	0x3e0ec28b	0.139414
235	0x3e790b49	0.24320711
236	0xbe819aa1	-0.25313285
237	0xbe803c71	-0.25046113
238	0x3e56b2ce	0.20966646
239	0xbe8f955a	-0.28043634
240	0x3e8971c6	0.26844615
241	0xbe815e4b	-0.25267252
242	0x3e9cc501	0.30619052
243	0x3e90efa4	0.2830783
244	0xbd09815d	-0.033570636
245	0xbe238aed	-0.15970965
246	0x3b9a1fe4	0.0047035087
247	0x3e9d3fb9	0.3071268
248	0xbd2e8061	-0.0426029
249	0x3e5387c2	0.20657256
250	0x3e09c28f	0.13453124
251	0xbe18bd69	-0.14916004
252	0x3dd005f2	0.10157384
253	0x3c65f8e2	0.014036389
254	0xbd737700	-0.05943966
255	0x3e4549f1	0.19266488

linear2.weight f4 [3, 256]
0	0xbd03fc07	-0.032222774
1	0xbbd28038	-0.0064239763
2	0xbd96a55a	-0.07355757
3	0x3d15d9e3	0.036584746
4	0x3d18c8a9	0.03730074
5	0x3cc6a600	0.024249077
6	0x3cb58464	0.022157855
7	0xbb43d6a1	-0.0029882567
8	0x3c0066f0	0.007837042
9	0xbd6ef469	-0.058338556
10	0x3ca07f64	0.019591995
11	0xbd11d65e	-0.035604827
12	0xbcf8c8e3	-0.030369228
13	0x3d284ebb	0.04109071
14	0xbda1047c	-0.078621835
15	0x3ca18c9c	0.019720368
16	0xbbd35799	-0.0064496514
17	0x3cc9835a	0.024598766
18	0x3c64c710	0.013963476
19	0x3cba0122	0.022705618
20	0x3c0254de	0.007954804
21	0xbac1cdcc	-0.0014786064
22	0xbd1cde84	-0.038298145
23	0x3c6fba72	0.014631854
24	0x3cd35eb4	0.025801994
25	0xbcaf7e81	-0.021422626
26	0x3d060d0f	0.032727297
27	0xbd75d63d	-0.060018767
28	0xbd2ba2fc	-0.04190348
29	0xbd2afad6	-0.041743122
30	0x3d0fa86a	0.03507272
31	0xbd4f26b6	-0.050574027
32	0xbd72f926	-0.059319638
33	0xbca4b630	-0.020106405
34	0xbc824f6b	-0.01590701
35	0xbd54f7cb	-0.051994126
36	0xbd26aecb	-0.04069404
37	0xbda64b72	-0.08119859
38	0xbd93fcde	-0.07225965
39	0xbd52835e	-0.051394813
40	0x3cdb5516	0.02677397
41	0xbc9db365	-0.019250581
42	0xbcadf555	-0.021235147
43	0xbcd57c1d	-0.026060158
44	0xb9f7ea3f	-0.00047286038
45	0xbdc8c9d8	-0.09804124
46	0x3c2be79d	0.010492233
47	0xbbc90a10	-0.0061352327
48	0xbb86b13e	-0.0041104844
49	0xbd58a6a0	-0.05289328
50	0xbdca4f05	-0.09878353
51	0x3c758c4e	0.0149870645
52	0xbc7519ac	-0.014959734
53	0xbcefd3c1	-0.029275777
54	0xbcaf828e	-0.021424558
55	0xbd82434b	-0.06360491
56	0xbcfc3c9a	-0.030790616
57	0xbd352056	-0.04422029
58	0xbda6c026	-0.08142118
59	0xbd91d403	-0.07120516
60	0xbd1ac013	-0.037780832
61	0xbc540ff2	-0.012943255
62	0x3d4e7e75	0.050413568
63	0xbd9a2409	-0.075264044
64	0xbdc43df4	-0.09582129
65	0x3d159151	0.036515538
66	0x3d4f97ac	0.050681755
67	0x3b7a68c8	0.0038209427
68	0x3d0b7cb1	0.034054462
69	0x3bc6e5c6	0.0060698716
70	0xbd8b549a	-0.06803246
71	0x3d44da21	0.048059586
72	0xbda2bc59	-0.07946081
73	0x3d04e961	0.03244913
74	0xbcfaeb44	-0.030629762
75	0xbc8b25bc	-0.016985767
76	0xbd1bebea	-0.038066782
77	0xbcf1ece3	-0.029531902
78	0xbb330cee	-0.002732094
79	0x3d072d29	0.033002052
80	0xbae13573	-0.0017182067
81	0xbd2984a3	-0.041386258
82	0xbd61fcfb	-0.0551729
83	0x3b86aeea	0.004110207
84	0xbc766d63	-0.015040728
85	0xbc50f1ac	-0.012752932
86	0xbd9fc77d	-0.07801721
87	0xbd25fe75	-0.040525872
88	0x3d6f6eac	0.058455154
89	0xbd701357	-0.058612194
90	0xbd4c5dbc	-0.04989408
91	0xbd8f7dd4	-0.07006422
92	0xbc80f54a	-0.015741963
93	0x3d125588	0.0357261
94	0x3b547831	0.0032420272
95	0x3d59bec2	0.053160436
96	0xbceaa39e	-0.028642472
97	0xbdb19c79	-0.08672423
98	0xbccd39f4	-0.025052048
99	0x3b96af09	0.0045985025
100	0x3d542800	0.05179596
101	0x3c6d00e5	0.014465545
102	0xbcbf605d	-0.02336138
103	0x3bed5a1a	0.007243407
104	0xbd4276ec	-0.047476694
105	0x3bfba3e2	0.0076794485
106	0xbdad503a	-0.084625676
107	0xbd896ccd	-0.06710205
108	0xbc7c7890	-0.015409604
109	0xbc2e54da	-0.010640347
110	0xbd440939	-0.047860358
111	0x3c34288c	0.010995995
112	0xbdbcea59	-0.09224386
113	0xbdaaac35	-0.08333627
114	0xbd8f2257	-0.06988972
115	0xbd7f6b7b	-0.06235836
116	0x3d48cb4e	0.04902201
117	0x3c23fcbc	0.010008987
118	0x3c300ba8	0.010744967
119	0xbd5ffd3a	-0.054684855
120	0x3d1489bc	0.036264166
121	0x3c8ae474	0.016954638
122	0x3d535932	0.051598735
123	0xbd6bf233	-0.057604026
124	0xbd427745	-0.047477026
125	0x3c9c35ef	0.019068686
126	0x3c5a22d1	0.013313965
127	0xbda9f17e	-0.08298014
128	0x3d24706a	0.04014627
129	0xbd9ca2a9	-0.076482125
130	0xbcaab42f	-0.020837871
131	0xbdbfe1a4	-0.093692094
132	0x3d366259	0.044527385
133	0xbdf3d5b6	-0.119059965
134	0xbd9c0c7a	-0.07619567
135	0xbd0b12da	-0.033953525
136	0x3d052e04	0.032514587
137	0xbaf67cb0	-0.001880547
138	0x3d4e9950	0.05043918
139	0xbd37ca08	-0.044870406
140	0xbc3ccb00	-0.011523008
141	0x3c4ffe93	0.012694973
142	0xbd0c8a19	-0.034311388
143	0xbd56cca5	-0.052441258
144	0xbc8740b5	-0.016510347
145	0x3cd582a2	0.026063267
146	0x3c82d2b0	0.015969604
147	0xbc0c264f	-0.008554055
148	0xbca071f4	-0.019585587
149	0xbd914685	-0.07093529
150	0xbcd417cc	-0.025890253
151	0xbc838182	-0.016052965
152	0x3d1ab72d	0.037772346
153	0xbcced7ae	-0.025249328
154	0x3c35ac35	0.011088421
155	0xbc3f71b9	-0.011684828
156	0xbc18afeb	-0.009319286
157	0x3c437cb8	0.011931591
158	0xbd0ac708	-0.033881217
159	0xbc5e461c	-0.01356652
160	0xbd2cf2b2	-0.04222364
161	0x3d055519	0.03255186
162	0xbceb6214	-0.02873329
163	0x3d2d68fd	0.042336453
164	0x3be7069b	0.007050348
165	0x3c9bc512	0.019014869
166	0xbd9c7b62	-0.07640721
167	0xbcf252a8	-0.02958043
168	0x3c770417	0.015076659
169	0x3c863ff8	0.016387925
170	0xbcbe2640	-0.023211598
171	0xbb27b3a4	-0.0025589252
172	0x3cf2cbf8	0.029638276
173	0x3b2f4fee	0.0026750523
174	0xbd60cf1a	-0.054885007
175	0xbdabdaf9	-0.08391375
176	0x3c466644	0.012109343
177	0x3d1520ec	0.03640835
178	0xbc2f57c3	-0.010702076
179	0xbd813e9a	-0.063107684
180	0x3d6411da	0.055681087
181	0xbd9e86ee	-0.077405795
182	0x3d0001a0	0.03125155
183	0x3c992de6	0.018698644
184	0xbbd0c62d	-0.0063712806
185	0xbd43ad21	-0.04777253
186	0x3d0de421	0.03464139
187	0xbdbe0720	-0.09278703
188	0xbd3f54b8	-0.046711653
189	0x3b113950	0.0022159405
190	0xbca74d88	-0.020422712
191	0xbd22a371	-0.03970665
192	0xbd947362	-0.0724857
193	0xbc9d940a	-0.01923563
194	0x3d2c4cf8	0.04206559
195	0xbcbee30f	-0.02330163
196	0x3b5de44b	0.0033857997
197	0xbd0aed9e	-0.033918016
198	0xbca66610	-0.020312339
199	0xbbe45c98	-0.006969046
200	0xbd3e9e92	-0.046537943
201	0x3c7a560e	0.015279306
202	0xbce94250	-0.028474003
203	0xbd984613	-0.074352406
204	0x3cd615a6	0.02613337
205	0x3cc3312a	0.023827154
206	0x3d2b9e13	0.0418988
207	0xbd8e581d	-0.069504
208	0x3c22c313	0.009934205
209	0xbd793c9d	-0.06084882
210	0x3cae1d22	0.021254126
211	0xbd993c18	-0.07482165
212	0x3cc9a209	0.024613397
213	0x3b9a1e40	0.004703313
214	0xbd12fa44	-0.035883203
215	0xbd3a15f4	-0.045431092
216	0x3c5792d8	0.013157569
217	0xbd42e5d2	-0.047582455
218	0xbdb92381	-0.09039975
219	0xbdb6d381	-0.0892706
220	0xbcfe57ec	-0.031047784
221	0xbd3aae5d	-0.045576442
222	0x3d187243	0.037218343
223	0xbd44717e	-0.047959797
224	0xbba06c10	-0.0048956946
225	0xbd81c68f	-0.063367
226	0x3ccd5d27	0.025068833
227	0xbc8064fa	-0.01567315
228	0xbd27d25e	-0.040972106
229	0xbd3d574f	-0.046225842
230	0xbd87c5fe	-0.06629561
231	0xbd61f843	-0.0551684
232	0xbdcabaa2	-0.09898879
233	0x3c942be8	0.018087342
234	0xbd46eca0	-0.048565507
235	0x3b0847dd	0.0020794787
236	0xbd38f4b0	-0.045155227
237	0x3ca2718c	0.019829534
238	0xbd6a3272	-0.057177015
239	0x3d083546	0.03325393
240	0x3b33d923	0.0027442656
241	0xbd41e6ed	-0.04733937
242	0xbd8d6eb2	-0.06905879
243	0xbd5b3561	-0.053517703
244	0xbbb0c753	-0.005394855
245	0xbd613ef3	-0.054991674
246	0xbd4e8d7e	-0.050427906
247	0xbdb6ad48	-0.089197695
248	0x3b8801fd	0.0041506276
249	0x3ccdcdc8	0.025122538
250	0xbcceeb80	-0.02525878
251	0x3bcbb8a6	0.00621708
252	0xbd489321	-0.048968438
253	0x3c64fcef	0.01397632
254	0xbcd54df4	-0.026038148
255	0xbd8ac174	-0.067751795

linear2.bias f4 [3]
0	0x3cff138d	0.031137252
1	0x3c7aaf53	0.01530059
2	0xbcd88fb0	-0.026435703
