Snake_AI/game515bestscore52.pth (torch, 17216 bytes, 4 tensors)

linear1.weight f4 [256, 11]
0.9416982 0.9343619 -2.3735476 -2.2868047 -1.9704828 -1.7784951 -0.13709198 -1.3350184
-0.54508495 -2.0865958 0.10488557 -0.21448824 -0.16656095 -0.87405527 0.12682825 1.8096241
1.5090402 0.9631426 0.35936493 1.4369457 -1.8753188 -0.2587901 -0.09504938 -0.1439852
0.083716296 0.018293284 -0.06293266 -0.28674036 -0.24633771 0.085281834 -0.17016791 0.069034465
-0.18144903 0.20099975 0.40423444 1.3498695 -0.2911715 -0.007070952 -1.158382 0.22203004
1.8241673 0.23910348 1.6248535 0.5521626 -0.044392794 -0.14922886 -0.10645074 -0.03197956
0.050696313 0.14329445 -0.09115949 -0.018953592 -0.04937899 -0.17368293 -0.28213346 -0.32143378
-0.12249709 -0.123719946 0.10494337 -0.06157198 0.1907484 0.16258387 -0.6042022 -0.36409974
-0.103856616 -0.18064575 -1.0085495 0.41142702 0.54972816 0.22162665 1.8497646 1.4720892
1.6252514 0.36767203 0.4659234 -2.0054007 -0.11567946 -0.15140508 -0.16160591 -0.026760304
0.1803976 -0.066290855 -0.06660776 -0.30003357 -0.49076417 0.02827576 -0.007911655 0.07321229
1.729969 -0.05206602 -0.5368343 -0.5714573 0.13035783 -0.6393558 0.25326553 1.7441134
-1.5050545 -0.19958556 -1.1006987 0.16912274 0.051837295 0.0041774907 0.017433051 -0.055284988
0.1063875 0.07388446 -0.19431694 -0.069545545 0.014477193 -0.08470087 0.23296961 -0.2917319
-0.41191742 0.061823 -0.28413036 -0.34307164 -0.48859212 0.053211156 -0.22496487 -0.21859957
0.31135836 -0.69517684 1.6575543 -0.7649328 2.6433265 0.031471234 -0.1198827 2.1403108
-1.4597862 -0.50056094 -0.030315261 -1.8811978 -0.5894137 0.18437545 0.67253876 -0.24854867
1.6394874 -0.15718569 0.24000554 1.6158829 -0.26391092 -1.5756664 -1.6950899 0.04553356
0.6810271 -0.13626775 0.30999386 1.9918311 2.7555087 2.4972265 -3.6584666 -2.6247747
2.535364 0.91564804 -0.012288083 -0.04381571 -0.03604812 -0.16683164 0.13473144 0.118877664
0.1257557 -0.09581256 0.045796875 -0.009418495 -0.011705018 -0.0861185 0.1264112 0.44223538
0.09103196 -0.24906285 0.09979351 -0.21560912 0.45919377 0.39820918 0.5023404 0.7244751
-0.26934323 -0.29210883 0.068966135 -0.054632187 -0.08687443 -0.12114405 0.118796885 -0.11050613
-0.31006208 -0.27533472 0.12755074 -0.27388093 -0.4889254 -0.2324516 -0.93086535 1.6305948
1.796377 -1.1007996 -2.2225351 0.56050086 0.9948336 -0.541364 -1.0947938 0.4987725
-0.10153458 1.7752044 1.753144 0.55871975 1.8872052 -1.2583083 -1.2539539 0.10047671
-0.24104479 0.27080044 -0.060949184 -0.25210395 0.017204814 -0.29027787 -0.23840795 -0.3978947
-0.06616399 -0.11250879 0.04597528 0.3346301 -0.4444573 0.2478473 0.47018534 1.2528126
0.94314194 1.0324802 0.4951624 -1.4796197 -0.3697598 -0.07674829 -0.008733509 0.12100903
0.0545719 0.05217415 -0.15111831 0.2086496 0.010821313 -0.29872033 -0.18599856 -0.15003222
-0.09703598 -0.2970264 0.08373086 0.07988508 0.12938744 -0.32783297 -0.11561584 0.04157615
-0.35270566 -0.0013849493 -0.023522334 -0.3281311 0.07273497 -0.524129 0.499995 0.70858884
00000000: 2213 713f 5732 6f3f 34e8 17c0 025b 12c0
00000010: c838 fcbf baa5 e3bf d761 0cbe e2e1 aabf
00000020: b08a 0bbf c98a 05c0 3fce d63d cea2 5bbe
00000030: f48e 2abe 16c2 5fbf 44df 013e c3a1 e73f
00000040: 3b28 c13f 8390 763f aefe b73e d6ed b73f
00000050: 720a f0bf 2380 84be 40a9 c2bd db70 13be
00000060: 7373 ab3d ccdb 953c d7e2 80bd a2cf 92be
00000070: f43f 7cbe 3ea8 ae3d 7f40 2ebe f161 8d3d
00000080: c6cd 39be e1d2 4d3e d1f7 ce3e 86c8 ac3f
00000090: 6e14 95be 72b3 e7bb dd45 94bf d85b 633e
000000a0: 507e e93f 8bd7 743e 33fb cf3f 875a 0d3f
000000b0: 38d5 35bd 73cf 18be d802 dabd 00fd 02bd
000000c0: f0a6 4f3d c8bb 123e d4b1 babd 9044 9bbc
000000d0: a041 4abd f0d9 31be cc73 90be f892 a4be
000000e0: c1df fabd e260 fdbd 8dec d63d e732 7cbd
000000f0: 8c53 433e 637c 263e ffac 1abf 486b babe
00000100: c7b2 d4bd 33fb 38be 2618 81bf 90a6 d23e
00000110: fcba 0c3f 19f2 623e 16c5 ec3f 6b6d bc3f
00000120: 3d08 d03f 823f bc3e 838d ee3e 7c58 00c0
00000130: 5ae9 ecbd ef09 1bbe 057c 25be 6d38 dbbc
00000140: 26ba 383e 80c3 87bd a669 88bd 009e 99be
00000150: 7145 fbbe 91a2 e73c e39f 01bc 53f0 953d
00000160: a06f dd3f 2e43 55bd f96d 09bf 074b 12bf
00000170: 867c 053e d2ac 23bf 05ac 813e 1c3f df3f
00000180: a0a5 c0bf 2860 4cbe b2e3 8cbf 832e 2d3e
00000190: 5853 543d 55e3 883b c2cf 8e3c 8372 62bd
000001a0: b1e1 d93d bc50 973d 05fb 46be e56d 8ebd
000001b0: c031 6d3c a677 adbd 968f 6e3e e25d 95be
000001c0: d7e6 d2be 1d3a 7d3d 8979 91be 16a7 afbe
000001d0: bf28 fabe f1f3 593d 315d 66be 91d8 5fbe
000001e0: 5d6a 9f3e 1cf7 31bf bd2a d43f a3d2 43bf
000001f0: 432c 2940 fbe7 003d 1085 f5bd dafa 0840
00000200: 46da babf c324 00bf b657 f8bc 17cb f0bf
00000210: d1e3 16bf ebcc 3c3e 802b 2c3f 8b83 7ebe
00000220: b9da d13f 49f5 20be 03c4 753e 40d5 ce3f
00000230: 551f 87be 70af c9bf b5f8 d8bf 6681 3a3d
00000240: cb57 2e3f c689 0bbe 84b7 9e3e 52f4 fe3f
00000250: 415a 3040 8fd2 1f40 5124 6ac0 4ffc 27c0
00000260: 6743 2240 e967 6a3f f553 49bc 1a78 33bd
00000270: 32a7 13bd ead5 2abe 0af7 093e 2276 f33d
00000280: 1ac6 003e 6039 c4bd 8195 3b3d 0850 1abc
00000290: 67c6 3fbc e55e b0bd f071 013e ad6c e23e
000002a0: f76e ba3d 550a 7fbe 8a60 cc3d a3c8 5cbe
000002b0: 721b eb3e 13e2 cb3e 6199 003f 3377 393f
000002c0: 5be7 89be 4a8f 95be 1e3e 8d3d 00c6 5fbd
000002d0: 39eb b1bd 5f1a f8bd c84b f33d 0a51 e2bd
000002e0: 75c0 9ebe acf8 8cbe a99c 023e 1f3a 8cbe
000002f0: 6e54 fabe cb07 6ebe 314d 6ebf 55b7 d03f
00000300: aeef e53f 00e7 8cbf 043e 0ec0 fc7c 0f3f
00000310: 6aad 7e3f d596 0abf 3422 8cbf 1c5f ff3e
00000320: 5df1 cfbd e639 e33f 0667 e03f 4208 0f3f
00000330: f18f f13f 3f10 a1bf 9081 a0bf bcc6 cd3d
00000340: 72d4 76be 5ba6 8a3e daa5 79bd c513 81be
00000350: 1cf1 8c3c 4d9f 94be 3721 74be dbb8 cbbe
00000360: fc80 87bd 026b e6bd 9350 3c3d a354 ab3e
00000370: e88f e3be afcb 7d3e 22bc f03e 2a5c a03f
00000380: c071 713f 5028 843f ed85 fd3e 2e64 bdbf
00000390: 2851 bdbe 352e 9dbd fe16 0fbc 95d3 f73d
000003a0: c986 5f3d 90b4 553d c2be 1abe 3ea8 553e
000003b0: e04b 313c dff1 98be 6876 3ebe 0ca2 19be
000003c0: cdba c6bd d813 98be 167b ab3d ca9a a33d
000003d0: 247e 043e b9d9 a7be ffc7 ecbd c14b 2a3d
000003e0: d695 b4be 3087 b5ba e9b1 c0bc cd00 a8be
000003f0: 12f6 943d 512d 06bf 58ff ff3e 1466 353f

linear1.bias f4 [256]
-1.4203016 -2.9143176 -0.30594143 -2.368261 -0.23747136 -0.09341099 -2.7119498 -0.29377502
-0.6228588 -0.3626917 -0.7595085 -1.5918914 -2.382464 -2.92919 -0.18129592 -1.9685106
-0.3499297 -0.87767786 -2.5720317 -0.6322823 -2.004442 -0.34722695 -0.40667337 -1.5812829
-1.4085894 -0.32878083 -1.8089318 -0.3741155 -2.1968231 -0.15472525 -0.28685436 -1.2425356
-0.9544416 -0.86539125 -1.8784693 -1.21169 -1.5376776 -0.3063335 -0.25472388 -0.52650857
-1.5908499 -0.64061975 -0.11175688 0.0043772976 -1.0460342 -0.2262359 -0.32163784 -0.16868177
-1.3478991 -0.4153193 -0.33077517 -1.533461 -0.5355712 -0.15446499 -0.081899025 -2.8830311
-1.4595011 -0.29821542 -0.96571356 -0.18767634 -0.34754083 -2.4872622 -0.18028858 -0.5092631
-2.5803201 -0.44551262 -0.7917046 -1.3554854 -0.41484046 -0.3979636 -0.28025723 -1.462635
-1.0230451 -1.7597536 -1.1875066 -0.43615702 -3.1704972 -1.1021155 -2.4075496 -1.490791
-0.79497 -0.013243187 -0.35085714 -2.0909817 -0.09728414 -0.49126446 -0.88722575 -0.427178
-0.22700278 -0.116706245 -0.6812993 -2.23815 -0.2867044 -1.3402175 -1.7787031 -1.1011338
-0.28100288 -0.6511741 -0.4974773 -0.3836372 -0.9693294 -1.9864498 -0.19022278 -0.8219684
-0.21808274 -1.7093534 -2.626507 -2.355584 -0.39889553 -0.30776894 -0.73307484 -1.6029937
-0.27955586 -0.24738644 -0.66636986 -0.28020158 -0.39596623 -1.9045936 -2.9333076 -0.29205894
-2.1013978 -2.4519134 -0.3745515 -0.46557978 -0.7192558 -1.2369378 -1.3734204 -1.9647394
-0.6332182 -0.2698337 -0.26229814 -2.5786998 -0.9343999 0.044440452 -1.3583021 -0.41589528
-0.7801631 0.5303938 -0.32462054 -0.4780316 -2.3542738 -2.1579044 -1.2432245 -2.919996
-0.83346915 -0.36516768 -0.6157095 -0.6749626 -0.32490623 -0.055544596 -0.26290074 -0.7795969
-0.4004757 -0.92528677 -0.91104794 -0.39214706 -0.38386375 -0.47532824 -0.09926968 -0.3778803
-0.35014534 -1.3661237 -0.26893538 -2.0978067 -1.5329274 -0.21599673 -0.32485476 0.24716057
-0.34520823 -2.0958803 -0.37494287 -1.3586375 -0.3682936 -0.29442832 -0.45072013 -0.2441393
-0.25201124 -0.18541177 -3.3120718 -3.0181613 -0.30583254 -0.14992513 -0.27742025 -0.3659269
-0.6372559 -1.1771505 -0.6556405 -0.09894373 -1.3249513 -1.0246158 -0.12864368 -0.057729244
-0.22960211 -0.35986716 -1.1662649 -0.80151707 -0.1953994 -1.6788886 -0.10149631 -0.46331462
-0.2623276 -0.44084603 -1.1649799 -1.5850189 -1.3886343 -0.31525216 -1.6384809 -2.5665886
-2.7704608 0.3376132 -1.2092649 -0.3354922 -0.088795096 -0.7203338 -0.14338359 -2.7787614
0.46703207 -1.7579225 -0.19539711 -0.73612326 -0.4691121 -1.617272 -0.095342755 -0.3427682
-2.6615257 -0.24564199 -0.2558282 -0.35300046 -0.35242996 -0.1212222 -0.3079613 -0.20063245
-0.48353145 -0.05599844 -0.4249696 -0.14100301 -1.2751733 -0.37732014 -0.2713361 -0.23430964
-0.9661898 -0.6131762 -0.9026181 -0.30612174 -0.28570455 -2.6461205 -0.1101472 -0.16122858
-2.8826718 -2.1980705 -1.4322137 -0.26004204 -0.3792436 -0.72055787 -0.49172962 -0.50647604
00000000: 71cc b5bf 2e84 3ac0 5ba4 9cbe 9791 17c0
00000010: b12b 73be 434e bfbd 9690 2dc0 ae69 96be
00000020: ad73 1fbf bab2 b9be 266f 42bf 19c3 cbbf
00000030: 4a7a 18c0 d977 3bc0 a3a5 39be 28f8 fbbf
00000040: fc29 b3be 7faf 60bf 2b9c 24c0 41dd 21bf
00000050: c748 00c0 bbc7 b1be 7e37 d0be 7a67 cabf
00000060: a84c b4bf f655 a8be 148b e7bf 118c bfbe
00000070: c098 0cc0 4c70 1ebe 93de 92be 680b 9fbf
00000080: 4956 74bf 488a 5dbf af71 f0bf a818 9bbf
00000090: 9fd2 c4bf bfd7 9cbe 2b6b 82be 44c9 06bf
000000a0: f8a0 cbbf a8ff 23bf cbe0 e4bd 6f6f 8f3b
000000b0: 73e4 85bf 62aa 67be b7ad a4be eaba 2cbe
000000c0: f587 acbf bba4 d4be 5d5b a9be 7348 c4bf
000000d0: 321b 09bf 122c 1ebe adba a7bd 9583 38c0
000000e0: efd0 babf b1af 98be 0139 77bf 3a2e 40be
000000f0: dff0 b1be 4e2f 1fc0 929d 38be 115f 02bf
00000100: f723 25c0 3b1a e4be 27ad 4abf 8c80 adbf
00000110: f865 d4be e3c1 cbbe e07d 8fbe a037 bbbf
00000120: 24f3 82bf 9b3f e1bf 3700 98bf f94f dfbe
00000130: 6de9 4ac0 1f12 8dbf 4b15 1ac0 3dd2 bebf
00000140: 2783 4bbf f4f9 58bc 8ca3 b3be a5d2 05c0
00000150: e83c c7bd 0487 fbbe 3a21 63bf 13b7 dabe
00000160: 6b73 68be af03 efbd a269 2ebf d93d 0fc0
00000170: ebca 92be 3f8c abbf 8bac e3bf f4f1 8cbf
00000180: 9cdf 8fbe 59b3 26bf 58b5 febe 186c c4be
00000190: f925 78bf fd43 febf c3c9 42be 856c 52bf
000001a0: 1551 5fbe 18cc dabf b118 28c0 e3c1 16c0
000001b0: 093c ccbe e493 9dbe cbaa 3bbf e62e cdbf
000001c0: f221 8fbe df52 7dbe 3797 2abf 9576 8fbe
000001d0: 16bc cabe b9c9 f3bf 50bb 3bc0 c088 95be
000001e0: 4d7d 06c0 26ec 1cc0 37c5 bfbe 7960 eebe
000001f0: 2621 38bf fa53 9ebf 3dcc afbf 957c fbbf
00000200: 971a 22bf a527 8abe f14b 86be 6b09 25c0
00000210: d534 6fbf 3107 363d d8dc adbf 3af0 d4be
00000220: c5b8 47bf e3c7 073f aa34 a6be 8fc0 f4be
00000230: 6cac 16c0 1b1b 0ac0 fb21 9fbf 37e1 3ac0
00000240: 3c5e 55bf 42f7 babe 239f 1dbf 59ca 2cbf
00000250: 1c5a a6be bb82 63bd ed9a 86be aa93 47bf
00000260: 270b cdbe 98df 6cbf 703a 69bf 80c7 c8be
00000270: ca89 c4be 395e f3be e74d cbbd 8779 c1be
00000280: 4046 b3be 24dd aebf e6b1 89be 7742 06c0
00000290: f736 c4bf 3f2e 5dbe 5d53 a6be a917 7d3e
000002a0: 22bf b0be e722 06c0 83f8 bfbe d5e7 adbf
000002b0: fb90 bcbe 4fbf 96be cac4 e6be a7ff 79be
000002c0: 9e07 81be 95dc 3dbe fcf8 53c0 8e29 41c0
000002d0: 1596 9cbe f985 19be 070a 8ebe c55a bbbe
000002e0: 3423 23bf deac 96bf 0ed8 27bf 03a3 cabd
000002f0: 0198 a9bf 9c26 83bf 2bbb 03be 8075 6cbd
00000300: d11c 6bbe 8240 b8be 2b48 95bf 3930 4dbf
00000310: c816 48be d2e5 d6bf 4cdd cfbd 9337 edbe
00000320: ce4f 86be 92b6 e1be 101e 95bf e6e1 cabf
00000330: c5be b1bf bb68 a1be beb9 d1bf fd42 24c0
00000340: 3b4f 31c0 a3db ac3e 31c9 9abf a2c5 abbe
00000350: 34da b5bd cc67 38bf 26d3 12be 3ad7 31c0
00000360: d41e ef3e 9b03 e1bf 2e16 48be 9372 3cbf
00000370: 762f f0be c502 cfbf 1043 c3bd 507f afbe
00000380: 7056 2ac0 9389 7bbe eafb 82be 7abc b4be
00000390: b371 b4be 5843 f8bd 1aad 9dbe 9872 4dbe
000003a0: 6f91 f7be 9f5e 65bd 9e95 d9be 1863 10be
000003b0: e138 a3bf 1b30 c1be 91ec 8abe deee 6fbe
000003c0: 3758 77bf 1ef9 1cbf fb11 67bf fdbb 9cbe
000003d0: de47 92be 0a5a 29c0 db94 e1bd 1b19 25be
000003e0: b27d 38c0 30ad 0cc0 c752 b7bf 3b24 85be
000003f0: 382c c2be 7b76 38bf fcc3 fbbe 6aa8 01bf

linear2.weight f4 [3, 256]
-0.47233495 -0.49921513 -0.10909858 -0.30028293 -0.044234253 -0.102200784 -0.33059576 -0.00084766484
-0.8828742 -0.090577595 0.12252151 -0.09423124 -0.08972743 -2.3664823 0.0019700844 -0.031362478
-0.020004993 -0.5172108 -0.04066544 -0.14775623 0.007531841 -0.06321382 -0.008651072 -0.13658807
0.29624736 -0.07987255 -0.69219244 0.3360919 -0.43338808 -0.018309832 -0.02809804 0.014310072
0.0011287754 0.018032186 -0.12763222 0.053444736 -0.0064633726 0.025266973 -0.06076944 -0.009541041
0.17825864 -0.120469615 -0.0079995375 -0.04283369 0.07341499 -0.044231463 0.0016334589 -0.007871362
-0.5866466 -0.023950918 -0.011068146 0.09575559 -0.07423959 -0.07992685 -0.13197286 -1.2758492
-0.8335796 -0.54855543 0.28914124 -0.0036566884 -0.11004291 -0.4356562 -0.3510066 -1.691417
-0.7313331 0.010927321 -0.09714352 -1.6777772 -0.024177283 -0.030543622 0.035087712 -1.8612791
-0.22995771 0.017519118 -0.12875904 0.042678088 -0.73535705 -0.0047527673 -0.68944395 -2.2010548
-0.7704564 -0.028649457 0.025052238 -0.68892235 -3.2924418 0.0016204665 -0.22326872 0.054557994
0.014406913 -0.029107 0.15078819 -0.026608897 -0.010955329 0.02260319 -0.4871553 -1.0303005
-0.008398474 -0.12308466 -0.0020680681 0.02245076 0.11295042 -0.098040186 -0.03821716 0.004181025
-0.3523827 0.13390625 -1.097879 -0.031282313 -0.102699056 0.03288923 -0.06265815 -0.109725654
-0.059117354 -0.0014083603 -0.30871165 0.013966591 -0.0039058586 -1.0658579 -1.7515635 0.04935782
-1.6234419 -0.44055274 -0.0050554695 -0.021084221 0.093645185 0.004787687 0.14007986 -0.3669024
-0.018565962 -0.20587552 -0.022647904 0.045728315 -0.010669346 -0.0038509746 0.023696624 -0.042082798
-0.05000826 -0.1463737 0.02576518 -0.92254674 -0.8943355 -0.19838262 -0.019003423 0.29786658
-0.1341413 -0.114329986 0.041582678 -0.029897604 -0.030210711 0.007797964 -0.19913913 -0.025896402
0.018135797 -0.9043773 -1.0029434 -0.008157314 0.10278413 -0.020285267 -0.0029200914 -0.0027651065
-0.3157567 0.012488868 -0.02329841 -0.27932888 1.9244472 -0.0037271816 -0.24423318 0.79403347
0.006328103 -0.20629524 0.053620733 -0.41296485 0.023209635 -0.103877746 -0.10488339 -0.09999003
0.00650945 0.027856233 -1.5191989 -3.392381 -0.015668675 0.011028201 -0.017057853 0.004274913
0.017427336 0.011223381 -0.6007274 -0.039427005 0.0033710008 0.003806383 0.0028254464 -0.14304163
0.0010611713 0.0049935337 -0.5744459 -1.035993 -0.016775066 -0.29997075 0.043059636 -0.0003429936
-0.0042342693 0.0024258178 0.26537946 0.17664306 0.15656835 -0.060421742 -0.074400164 0.08827055
-0.32363638 -1.0140551 0.02764504 -0.18440571 -0.0055834255 -0.32189178 -0.0009146258 -2.0612729
-0.03419138 0.027941719 -0.024914077 0.008056885 -0.10030563 1.1910638 0.010223142 -0.031900078
0.17378391 -0.028840512 -0.02200644 0.025855482 -0.0134979095 0.019438839 -0.025395852 -0.053006783
-0.0072263354 -0.054684903 0.0154239945 -0.07013229 -0.708733 -0.020700788 -0.07813682 -0.02340313
0.041806486 0.30453345 -0.27401885 -0.01199505 0.02572878 0.21435416 -0.026563792 -0.05231687
-0.21254197 -0.6313071 -0.0021699423 0.008320798 -0.03272182 -0.47590315 -0.23271768 -0.046602268
00000000: e3d5 f1be 2099 ffbe 146f dfbd afbe 99be
00000010: fa2e 35bd a54e d1bd d943 a9be d335 5eba
00000020: 0b04 62bf bf80 b9bd 8fec fa3d 4ffc c0bd
00000030: 04c3 b7bd 7274 17c0 881c 013b f175 00bd
00000040: 83e1 a3bc ed67 04bf ce90 26bd 694d 17be
00000050: a9cd f63b 3f76 81bd 3abd 0dbc bedd 0bbe
00000060: bcad 973e 3894 a3bd 8633 31bf 3d14 ac3e
00000070: 0be5 ddbe 80fe 95bc dc2d e6bc cb74 6a3c
00000080: 6bf3 933a 3cb8 933c 05b2 02be dee8 5a3d
00000090: b3ca d3bb affc ce3c 60e9 78bd 0752 1cbc
000000a0: 6f89 363e c6b8 f6bd 7e10 03bc 6172 2fbd
000000b0: 995a 963d 0d2c 35bd c919 d63a e3f6 00bc
000000c0: 792e 16bf b734 c4bc 2b57 35bc 821b c43d
000000d0: ed0a 98bd b0b0 a3bd e523 07be 074f a3bf
000000e0: 7965 55bf 216e 0cbf 520a 943e 0da5 6fbb
000000f0: 2d5e e1bd 540e dfbe 23b7 b3be 5a80 d8bf
00000100: a538 3bbf 8208 333c 2ff3 c6bd 67c1 d6bf
00000110: 700f c6bc 9e36 fabc 22b8 0f3d 653e eebf
00000120: 097a 6bbe 4184 8f3c 69d9 03be 38cf 2e3d
00000130: 5c40 3cbf 1abd 9bbb 667f 30bf 15de 0cc0
00000140: a13c 45bf 44b2 eabc 5a3a cd3c 375d 30bf
00000150: 5eb7 52c0 d565 d43a 8ea0 64be 3478 5f3d
00000160: f90a 6c3c ce71 eebc 3868 1a3e e7fa d9bc
00000170: fb7d 33bc 532a b93c 6b6c f9be e3e0 83bf
00000180: c199 09bc cf13 fcbd 6d88 07bb a8ea b73c
00000190: 8d52 e73d 4bc9 c8bd 9989 1cbd fb00 893b
000001a0: 816b b4be b81e 093e 4d87 8cbf e221 00bd
000001b0: e253 d2bd dbb6 063d eb52 80bd d8b7 e0bd
000001c0: 0a25 72bd bb98 b8ba 740f 9ebe 21d4 643c
000001d0: 6ff9 7fbb 086e 88bf 3c33 e0bf 6d2b 4a3d
000001e0: f2cc cfbf 2190 e1be 5aa8 a5bb d1b8 acbc
000001f0: 0cc9 bf3d 08e2 9c3b 1871 0f3e a2da bbbe
00000200: a517 98bc 08d1 52be 1988 b9bc 9d4d 3b3d
00000210: 7bce 2ebc a260 7cbb 6c1f c23c 035f 2cbd
00000220: 76d5 4cbd fde2 15be 8011 d33c 062c 6cbf
00000230: 2cf3 64bf d024 4bbe 11ad 9bbc f881 983e
00000240: 565c 09be d725 eabd 9952 2a3d d2eb f4bc
00000250: 747c f7bc 1086 ff3b 21eb 4bbe b124 d4bc
00000260: 8691 943c 4585 67bf 7360 80bf 41a6 05bc
00000270: 7c80 d23d 4a2d a6bc 015f 3fbb ca36 35bb
00000280: ddaa a1be 1c9e 4c3c 4fdc bebc 3204 8fbe
00000290: 4954 f63f bb43 74bb 4318 7abe c745 4b3f
000002a0: fa5b cf3b 0f3f 53be 6aa1 5b3d 2170 d3be
000002b0: 2222 be3c dbbd d4bd 1acd d6bd 93c7 ccbd
000002c0: 394d d53b c132 e43c 1c75 c2bf c51c 59c0
000002d0: 985b 80bc a1af 343c e9bc 8bbc 9214 8c3b
000002e0: c6c3 8e3c 46e2 373c 45c9 19bf 367e 21bd
000002f0: 02ec 5c3b 8374 793b 202b 393b 8179 12be
00000300: 0017 8b3a cca0 a33b e30e 13bf 6b9b 84bf
00000310: dd6b 89bc c495 99be 4d5f 303d d2d3 b3b9
00000320: a0bf 8abb 78fa 1e3b d1df 873e ebe1 343e
00000330: 7453 203e ca7c 77bd 1d5f 98bd 31c7 b43d
00000340: abb3 a5be 8fcc 81bf da77 e23c dad4 3cbe
00000350: 2bf5 b6bb 00cf a4be 80c3 6fba e5eb 03c0
00000360: 430c 0cbd 08e6 e43c 9b18 ccbc 0601 043c
00000370: 0a6d cdbd c774 983f f77e 273c a8a9 02bd
00000380: 69f4 313e f042 ecbc da46 b4bc e0ce d33c
00000390: 5626 5dbc 333e 9f3c f60a d0bc a41d 59bd
000003a0: e5ca ecbb 47fd 5fbd ecb4 7c3c 85a1 8fbd
000003b0: 876f 35bf b394 a9bc 3206 a0bd ecb7 bfbc
000003c0: 473d 2b3d cfeb 9b3e 334c 8cbe e386 44bc
000003d0: 2ac5 d23c a87f 5b3e 4f9c d9bc 374a 56bd
000003e0: 9aa4 59be 589d 21bf 9735 0ebb f553 083c
000003f0: 5107 06bd 94a9 f3be 8b4d 6ebe 05e2 3ebd

linear2.bias f4 [3]
0.9594715 -1.7834982 -1.6472218
00000000: ed9f 753f ab49 e4bf 2ad8 d2bf
