Snake_AI/model.pth (torch, 17216 bytes, 4 tensors)

linear1.weight f4 [256, 11]
000000 d2 2e 3f 3f 4a 76 56 3f 34 e8 17 c0 02 5b 12 c0
       0.7468082 0.83774245 -2.3735476 -2.2868047
000010 c8 38 fc bf ba a5 e3 bf 6b 39 d1 be 31 00 c2 bf
       -1.9704828 -1.7784951 -0.4086412 -1.5156308
000020 d1 75 a1 3d c9 8a 05 c0 e9 ff a8 3e 43 08 96 3d
       0.078838 -2.0865958 0.33007744 0.073257945
000030 52 86 fd 3e 26 24 80 bf 44 df 01 3e 58 8e ed 3f
       0.4951654 -1.0011032 0.12682825 1.8559065
000040 22 95 83 3f df d4 a5 3f 83 81 60 3e b1 be 70 3f
       1.0279887 1.2955588 0.21924405 0.9404097
000050 72 0a f0 bf 74 9d d6 bd 40 a9 c2 bd db 70 13 be
       -1.8753188 -0.104792506 -0.09504938 -0.1439852
000060 73 73 ab 3d cc db 95 3c d7 e2 80 bd a2 cf 92 be
       0.083716296 0.018293284 -0.06293266 -0.28674036
000070 f4 3f 7c be 3e a8 ae 3d 7f 40 2e be f1 61 8d 3d
       -0.24633771 0.085281834 -0.17016791 0.069034465
000080 c6 cd 39 be 29 84 80 bd ac e0 70 bf 60 28 7b 3f
       -0.18144903 -0.062752075 -0.9409282 0.9810848
000090 75 d5 24 3f 20 c6 a9 bf 25 30 ba bf e3 07 ba bf
       0.6438821 -1.3263588 -1.4545943 -1.4533657
0000a0 c5 33 c5 3f 0f 21 f9 3e 9e 0f b9 3f e5 47 ef 3d
       1.5406424 0.48658034 1.4457891 0.11683635
0000b0 38 d5 35 bd 73 cf 18 be d8 02 da bd 00 fd 02 bd
       -0.044392794 -0.14922886 -0.10645074 -0.03197956
0000c0 f0 a6 4f 3d c8 bb 12 3e d4 b1 ba bd 90 44 9b bc
       0.050696313 0.14329445 -0.09115949 -0.018953592
0000d0 a0 41 4a bd f0 d9 31 be cc 73 90 be f8 92 a4 be
       -0.04937899 -0.17368293 -0.28213346 -0.32143378
0000e0 c1 df fa bd e2 60 fd bd 8d ec d6 3d e7 32 7c bd
       -0.12249709 -0.123719946 0.10494337 -0.06157198
0000f0 8c 53 43 3e 63 7c 26 3e ff ac 1a bf 48 6b ba be
       0.1907484 0.16258387 -0.6042022 -0.36409974
000100 c7 b2 d4 bd 33 fb 38 be 6c b1 1d bf 5e 4e 9f 3d
       -0.103856616 -0.18064575 -0.6159885 0.07778619
000110 2b 3d 91 3f 19 f2 62 3e f8 4c 39 40 bb 1d 2a 40
       1.1346792 0.22162665 2.8953228 2.6580646
000120 10 bc 34 40 19 f6 b6 3d 0a 26 7d 3f 7c 58 00 c0
       2.8239784 0.08933658 0.9888617 -2.0054007
000130 8d d3 3f bf ef 09 1b be 05 7c 25 be 6d 38 db bc
       -0.74932176 -0.15140508 -0.16160591 -0.026760304
000140 26 ba 38 3e 80 c3 87 bd a6 69 88 bd 00 9e 99 be
       0.1803976 -0.066290855 -0.06660776 -0.30003357
000150 71 45 fb be 91 a2 e7 3c e3 9f 01 bc 53 f0 95 3d
       -0.49076417 0.02827576 -0.007911655 0.07321229
000160 47 04 e8 3f 1a 63 ad 3e 39 f3 2e bf 93 8c f6 bf
       1.8126305 0.3386467 -0.6833988 -1.926165
000170 75 1b 99 bf 02 98 a5 bf 4d 48 99 3e 03 cf 23 40
       -1.1961504 -1.2937014 0.29937974 2.55951
000180 f5 3c a6 bf c8 90 9a bd b9 a1 bc bf 83 2e 2d 3e
       -1.2987353 -0.07547146 -1.4736854 0.16912274
000190 58 53 54 3d 55 e3 88 3b c2 cf 8e 3c 83 72 62 bd
       0.051837295 0.0041774907 0.017433051 -0.055284988
0001a0 b1 e1 d9 3d bc 50 97 3d 05 fb 46 be e5 6d 8e bd
       0.1063875 0.07388446 -0.19431694 -0.069545545
0001b0 c0 31 6d 3c a6 77 ad bd 96 8f 6e 3e e2 5d 95 be
       0.014477193 -0.08470087 0.23296961 -0.2917319
0001c0 d7 e6 d2 be 1d 3a 7d 3d 89 79 91 be 16 a7 af be
       -0.41191742 0.061823 -0.28413036 -0.34307164
0001d0 bf 28 fa be f1 f3 59 3d 31 5d 66 be 91 d8 5f be
       -0.48859212 0.053211156 -0.22496487 -0.21859957
0001e0 5d 6a 9f 3e 92 20 a3 be c9 a0 c3 3f 09 ad cc bf
       0.31135836 -0.31860787 1.5283443 -1.5990306
0001f0 ec 7c af 3f fb e7 00 3d 10 85 f5 bd 23 9b 98 3f
       1.3709998 0.031471234 -0.1198827 1.1922344
000200 7f 15 8e bf 71 01 53 bf 5f 71 24 bf a2 f9 e6 bf
       -1.110031 -0.82424074 -0.6423549 -1.8044932
000210 c9 77 a7 be aa d9 80 3e e8 d8 b8 3f de ce bd be
       -0.32708576 0.25166065 1.4441195 -0.3707189
000220 d2 3e f1 3f 45 fb 4f 3f 00 36 17 be 6b eb a0 3f
       1.8847296 0.8124278 -0.14766693 1.2571844
000230 68 5d e5 be 70 9c cd bf 21 67 98 be df b0 9b 3d
       -0.44797826 -1.6063366 -0.2976618 0.07602095
000240 bf 38 25 3f a3 c9 ee bc ce 3f 86 3f 88 1e 45 40
       0.6453971 -0.029148882 1.0488222 3.0799885
000250 97 14 55 40 58 d5 69 40 51 24 6a c0 b6 96 39 c0
       3.3293817 3.6536465 -3.6584666 -2.8998237
000260 b6 c1 53 40 34 35 d1 3f f5 53 49 bc 1a 78 33 bd
       3.3086982 1.6344361 -0.012288083 -0.04381571
000270 32 a7 13 bd ea d5 2a be 0a f7 09 3e 22 76 f3 3d
       -0.03604812 -0.16683164 0.13473144 0.118877664
000280 1a c6 00 3e 60 39 c4 bd 81 95 3b 3d 08 50 1a bc
       0.1257557 -0.09581256 0.045796875 -0.009418495
000290 67 c6 3f bc e5 5e b0 bd f0 71 01 3e ad 6c e2 3e
       -0.011705018 -0.0861185 0.1264112 0.44223538
0002a0 f7 6e ba 3d 55 0a 7f be 8a 60 cc 3d a3 c8 5c be
       0.09103196 -0.24906285 0.09979351 -0.21560912
0002b0 72 1b eb 3e 13 e2 cb 3e 61 99 00 3f 33 77 39 3f
       0.45919377 0.39820918 0.5023404 0.7244751
0002c0 5b e7 89 be 4a 8f 95 be 1e 3e 8d 3d 00 c6 5f bd
       -0.26934323 -0.29210883 0.068966135 -0.054632187
0002d0 39 eb b1 bd 5f 1a f8 bd c8 4b f3 3d 0a 51 e2 bd
       -0.08687443 -0.12114405 0.118796885 -0.11050613
0002e0 75 c0 9e be ac f8 8c be a9 9c 02 3e be 4f 25 3f
       -0.31006208 -0.27533472 0.12755074 0.645748
0002f0 85 e8 93 3d a0 c1 75 bf a2 26 3e bf 5b 54 eb 3f
       0.07222084 -0.95998573 -0.742777 1.8385118
000300 ec 77 15 40 6b 8c 81 bf 8f 51 22 c0 26 92 9f 3e
       2.3354445 -1.0120977 -2.536228 0.3116619
000310 6a 53 27 3f 88 5f a1 3e 34 22 8c bf 1c 5f ff 3e
       0.65361655 0.31518197 -1.0947938 0.4987725
000320 5d f1 cf bd e6 39 e3 3f 06 67 e0 3f 42 08 0f 3f
       -0.10153458 1.7752044 1.753144 0.55871975
000330 f1 8f f1 3f 3f 10 a1 bf 90 81 a0 bf bc c6 cd 3d
       1.8872052 -1.2583083 -1.2539539 0.10047671
000340 72 d4 76 be 5b a6 8a 3e da a5 79 bd c5 13 81 be
       -0.24104479 0.27080044 -0.060949184 -0.25210395
000350 1c f1 8c 3c 4d 9f 94 be 37 21 74 be db b8 cb be
       0.017204814 -0.29027787 -0.23840795 -0.3978947
000360 fc 80 87 bd 02 6b e6 bd 93 50 3c 3d a3 54 ab 3e
       -0.06616399 -0.11250879 0.04597528 0.3346301
000370 e8 8f e3 be af cb 7d 3e 22 bc f0 3e 2a 5c a0 3f
       -0.4444573 0.2478473 0.47018534 1.2528126
000380 c0 71 71 3f 50 28 84 3f ed 85 fd 3e 2e 64 bd bf
       0.94314194 1.0324802 0.4951624 -1.4796197
000390 28 51 bd be 35 2e 9d bd fe 16 0f bc 95 d3 f7 3d
       -0.3697598 -0.07674829 -0.008733509 0.12100903
0003a0 c9 86 5f 3d 90 b4 55 3d c2 be 1a be 3e a8 55 3e
       0.0545719 0.05217415 -0.15111831 0.2086496
0003b0 e0 4b 31 3c df f1 98 be 68 76 3e be 0c a2 19 be
       0.010821313 -0.29872033 -0.18599856 -0.15003222
0003c0 cd ba c6 bd d8 13 98 be 16 7b ab 3d ca 9a a3 3d
       -0.09703598 -0.2970264 0.08373086 0.07988508
0003d0 24 7e 04 3e b9 d9 a7 be ff c7 ec bd c1 4b 2a 3d
       0.12938744 -0.32783297 -0.11561584 0.04157615
0003e0 d6 95 b4 be 30 87 b5 ba e9 b1 c0 bc cd 00 a8 be
       -0.35270566 -0.0013849493 -0.023522334 -0.3281311
0003f0 12 f6 94 3d 72 11 72 3e 97 bf a8 be 9c 5d 8a 3f
       0.07273497 0.23639467 -0.3295867 1.0809817

linear1.bias f4 [256]
000000 a4 90 d8 bf d2 87 57 c0 5b a4 9c be 6e 76 2b c0
       -1.6919141 -3.3676648 -0.30594143 -2.6791034
000010 b1 2b 73 be 43 4e bf bd d7 3a 5d c0 ae 69 96 be
       -0.23747136 -0.09341099 -3.4567163 -0.29377502
000020 36 1c 76 bf ba b2 b9 be 26 6f 42 bf 96 f5 12 c0
       -0.96136796 -0.3626917 -0.7595085 -2.2962394
000030 c2 db 47 c0 f9 bc 8c c0 a3 a5 39 be 28 f8 fb bf
       -3.122788 -4.398068 -0.18129592 -1.9685106
000040 fc 29 b3 be 44 cf 7e bf 2b 9c 24 c0 41 dd 21 bf
       -0.3499297 -0.9953501 -2.5720317 -0.6322823
000050 c7 48 00 c0 bb c7 b1 be 7e 37 d0 be b9 5e 19 c0
       -2.004442 -0.34722695 -0.40667337 -2.3964064
000060 a8 4c b4 bf f6 55 a8 be d1 27 18 c0 11 8c bf be
       -1.4085894 -0.32878083 -2.3774302 -0.3741155
000070 be 03 27 c0 4c 70 1e be 93 de 92 be 68 0b 9f bf
       -2.6096034 -0.15472525 -0.28685436 -1.2425356
000080 49 56 74 bf 48 8a 5d bf af 71 f0 bf 72 a4 a0 bf
       -0.9544416 -0.86539125 -1.8784693 -1.2550185
000090 9f d2 c4 bf bf d7 9c be 2b 6b 82 be 44 c9 06 bf
       -1.5376776 -0.3063335 -0.25472388 -0.52650857
0000a0 94 3c 16 c0 a8 ff 23 bf cb e0 e4 bd 6f 6f 8f 3b
       -2.3474474 -0.64061975 -0.11175688 0.0043772976
0000b0 73 e4 85 bf 62 aa 67 be b7 ad a4 be ea ba 2c be
       -1.0460342 -0.2262359 -0.32163784 -0.16868177
0000c0 f5 87 ac bf bb a4 d4 be 5d 5b a9 be 6e b5 31 c0
       -1.3478991 -0.4153193 -0.33077517 -2.7766986
0000d0 32 1b 09 bf 12 2c 1e be ad ba a7 bd eb 84 99 c0
       -0.5355712 -0.15446499 -0.081899025 -4.7974753
0000e0 e1 6b 12 c0 b1 af 98 be 01 39 77 bf 3a 2e 40 be
       -2.2878344 -0.29821542 -0.96571356 -0.18767634
0000f0 df f0 b1 be 03 0d 54 c0 92 9d 38 be 11 5f 02 bf
       -0.34754083 -3.3132942 -0.18028858 -0.5092631
000100 50 82 2c c0 3b 1a e4 be 27 ad 4a bf 01 75 14 c0
       -2.6954536 -0.44551262 -0.7917046 -2.3196414
000110 f8 65 d4 be e3 c1 cb be e0 7d 8f be a0 37 bb bf
       -0.41484046 -0.3979636 -0.28025723 -1.462635
000120 11 ad d4 bf 0f 44 20 c0 37 00 98 bf f9 4f df be
       -1.6615316 -2.504154 -1.1875066 -0.43615702
000130 7b 92 78 c0 1f 12 8d bf 90 e7 67 c0 19 72 17 c0
       -3.8839405 -1.1021155 -3.6235085 -2.366339
000140 27 83 4b bf f4 f9 58 bc 8c a3 b3 be 23 61 37 c0
       -0.79497 -0.013243187 -0.35085714 -2.8653038
000150 27 9e db bf 04 87 fb be 2a 2c f0 bf 13 b7 da be
       -1.7157639 -0.49126446 -1.8763478 -0.427178
000160 6b 73 68 be af 03 ef bd a2 69 2e bf a9 12 2f c0
       -0.22700278 -0.116706245 -0.6812993 -2.735514
000170 eb ca 92 be 98 37 bc bf c2 a0 04 c0 81 40 ed bf
       -0.2867044 -1.4704466 -2.0723119 -1.853531
000180 9c df 8f be 9b a2 38 bf 58 b5 fe be 18 6c c4 be
       -0.28100288 -0.72123116 -0.4974773 -0.3836372
000190 f9 25 78 bf 84 2f 2c c0 c3 c9 42 be 85 6c 52 bf
       -0.9693294 -2.6904001 -0.19022278 -0.8219684
0001a0 15 51 5f be fa 08 09 c0 8b f4 81 c0 ad 9b 1a c0
       -0.21808274 -2.141173 -4.0611014 -2.4157517
0001b0 09 3c cc be e4 93 9d be cb aa 3b bf e6 2e cd bf
       -0.39889553 -0.30776894 -0.73307484 -1.6029937
0001c0 f2 21 8f be df 52 7d be 37 97 2a bf 95 76 8f be
       -0.27955586 -0.24738644 -0.66636986 -0.28020158
0001d0 16 bc ca be a6 c1 4c c0 0c 01 90 c0 c0 88 95 be
       -0.39596623 -3.1993194 -4.500128 -0.29205894
0001e0 51 64 42 c0 4e c9 3f c0 37 c5 bf be 79 60 ee be
       -3.0373728 -2.9966617 -0.3745515 -0.46557978
0001f0 26 21 38 bf fa 53 9e bf a0 b8 c2 bf 25 96 1d c0
       -0.7192558 -1.2369378 -1.5212593 -2.462289
000200 97 1a 22 bf a5 27 8a be f1 4b 86 be 6b 09 25 c0
       -0.6332182 -0.2698337 -0.26229814 -2.5786998
000210 d5 34 6f bf 31 07 36 3d d8 dc ad bf 3a f0 d4 be
       -0.9343999 0.044440452 -1.3583021 -0.41589528
000220 c5 b8 47 bf 59 86 ac 3c aa 34 a6 be 8f c0 f4 be
       -0.7801631 0.021060156 -0.32462054 -0.4780316
000230 e7 8b 36 c0 5f 22 11 c0 fb 21 9f bf fb 88 3e c0
       -2.852289 -2.2677228 -1.2432245 -2.9771106
000240 3c 5e 55 bf 42 f7 ba be 23 9f 1d bf 59 ca 2c bf
       -0.83346915 -0.36516768 -0.6157095 -0.6749626
000250 1c 5a a6 be bb 82 63 bd ed 9a 86 be aa 93 47 bf
       -0.32490623 -0.055544596 -0.26290074 -0.7795969
000260 27 0b cd be d3 dd 78 bf 70 3a 69 bf 80 c7 c8 be
       -0.4004757 -0.97213477 -0.91104794 -0.39214706
000270 14 a5 36 bf 39 5e f3 be e7 4d cb bd 87 79 c1 be
       -0.7134564 -0.47532824 -0.09926968 -0.3778803
000280 40 46 b3 be 24 dd ae bf e6 b1 89 be e4 bf 2a c0
       -0.35014534 -1.3661237 -0.26893538 -2.667962
000290 f7 36 c4 bf 3f 2e 5d be 5d 53 a6 be 87 2f 93 3e
       -1.5329274 -0.21599673 -0.32485476 0.28747198
0002a0 22 bf b0 be d1 76 53 c0 83 f8 bf be 14 8c d0 bf
       -0.34520823 -3.304127 -0.37494287 -1.6292748
0002b0 fb 90 bc be 4f bf 96 be ca c4 e6 be a7 ff 79 be
       -0.3682936 -0.29442832 -0.45072013 -0.2441393
0002c0 9e 07 81 be 95 dc 3d be 8a 62 80 c0 ba b6 55 c0
       -0.25201124 -0.18541177 -4.0120287 -3.3392777
0002d0 15 96 9c be f9 85 19 be 07 0a 8e be c5 5a bb be
       -0.30583254 -0.14992513 -0.27742025 -0.3659269
0002e0 34 23 23 bf de ac 96 bf 0e d8 27 bf 03 a3 ca bd
       -0.6372559 -1.1771505 -0.6556405 -0.09894373
0002f0 01 98 a9 bf 9c 26 83 bf 2b bb 03 be 80 75 6c bd
       -1.3249513 -1.0246158 -0.12864368 -0.057729244
000300 d1 1c 6b be 82 40 b8 be 2b 48 95 bf cb 25 01 c0
       -0.22960211 -0.35986716 -1.1662649 -2.0179317
000310 c8 16 48 be d2 e5 d6 bf 4c dd cf bd 93 37 ed be
       -0.1953994 -1.6788886 -0.10149631 -0.46331462
000320 ce 4f 86 be 92 b6 e1 be c5 cd 9f bf 5a 90 c5 bf
       -0.2623276 -0.44084603 -1.2484671 -1.5434678
000330 a6 9f bd bf bb 68 a1 be aa c8 21 c0 b2 46 11 c0
       -1.4814346 -0.31525216 -2.5278726 -2.26994
000340 3b 4f 31 c0 70 50 6a be 31 c9 9a bf a2 c5 ab be
       -2.7704608 -0.22882247 -1.2092649 -0.3354922
000350 34 da b5 bd cc 67 38 bf 26 d3 12 be 89 22 54 c0
       -0.088795096 -0.7203338 -0.14338359 -3.3146079
000360 35 21 c7 be 77 14 e5 bf 2e 16 48 be 93 72 3c bf
       -0.38892522 -1.789687 -0.19539711 -0.73612326
000370 76 2f f0 be 35 9e f8 bf 10 43 c3 bd 50 7f af be
       -0.4691121 -1.9423281 -0.095342755 -0.3427682
000380 e8 2b 5d c0 93 89 7b be ea fb 82 be 7a bc b4 be
       -3.4558048 -0.24564199 -0.2558282 -0.35300046
000390 b3 71 b4 be 58 43 f8 bd 1a ad 9d be 98 72 4d be
       -0.35242996 -0.1212222 -0.3079613 -0.20063245
0003a0 6f 91 f7 be 9f 5e 65 bd 9e 95 d9 be 18 63 10 be
       -0.48353145 -0.05599844 -0.4249696 -0.14100301
0003b0 5a fd 25 c0 1b 30 c1 be 91 ec 8a be de ee 6f be
       -2.5935884 -0.37732014 -0.2713361 -0.23430964
0003c0 37 58 77 bf 1e f9 1c bf fb 11 67 bf fd bb 9c be
       -0.9661898 -0.6131762 -0.9026181 -0.30612174
0003d0 de 47 92 be 0a 5a 29 c0 db 94 e1 bd 1b 19 25 be
       -0.28570455 -2.6461205 -0.1101472 -0.16122858
0003e0 ad c9 4e c0 30 ad 0c c0 c7 52 b7 bf 3b 24 85 be
       -3.2310593 -2.1980705 -1.4322137 -0.26004204
0003f0 38 2c c2 be 87 a6 de bf fc c3 fb be 6a a8 01 bf
       -0.3792436 -1.739457 -0.49172962 -0.50647604

linear2.weight f4 [3, 256]
000000 e3 3d 86 bf 6a eb e4 be 14 6f df bd f4 26 eb 3d
       -1.0487636 -0.44710857 -0.10909858 0.11482039
000010 fa 2e 35 bd a5 4e d1 bd 59 e7 03 bf d3 35 5e ba
       -0.044234253 -0.102200784 -0.51524884 -0.00084766484
000020 6e 58 52 bf bf 80 b9 bd 8f ec fa 3d 26 fa 2f bc
       -0.82166183 -0.090577595 0.12252151 -0.010740792
000030 0f 1e 39 bf ea c7 cf bf 88 1c 01 3b f1 75 00 bd
       -0.7231149 -1.6232884 0.0019700844 -0.031362478
000040 83 e1 a3 bc d4 26 b4 bf ce 90 26 bd 69 4d 17 be
       -0.020004993 -1.4074349 -0.04066544 -0.14775623
000050 a9 cd f6 3b 3f 76 81 bd 3a bd 0d bc f3 f3 93 3f
       0.007531841 -0.06321382 -0.008651072 1.1558822
000060 bc ad 97 3e 38 94 a3 bd e0 29 be be 3d 14 ac 3e
       0.29624736 -0.07987255 -0.37141323 0.3360919
000070 99 00 c0 bd 80 fe 95 bc dc 2d e6 bc cb 74 6a 3c
       -0.09375114 -0.018309832 -0.02809804 0.014310072
000080 6b f3 93 3a 3c b8 93 3c 05 b2 02 be 70 bb 19 be
       0.0011287754 0.018032186 -0.12763222 -0.15012908
000090 b3 ca d3 bb af fc ce 3c 60 e9 78 bd 07 52 1c bc
       -0.0064633726 0.025266973 -0.06076944 -0.009541041
0000a0 3d 08 d0 bf c6 b8 f6 bd 7e 10 03 bc 61 72 2f bd
       -1.6252514 -0.120469615 -0.0079995375 -0.04283369
0000b0 99 5a 96 3d 0d 2c 35 bd c9 19 d6 3a e3 f6 00 bc
       0.07341499 -0.044231463 0.0016334589 -0.007871362
0000c0 79 2e 16 bf b7 34 c4 bc 2b 57 35 bc 9c 69 b7 be
       -0.5866466 -0.023950918 -0.011068146 -0.3582276
0000d0 ed 0a 98 bd b0 b0 a3 bd e5 23 07 be 08 61 3d be
       -0.07423959 -0.07992685 -0.13197286 -0.18494046
0000e0 c9 a6 c2 bd 21 6e 0c bf 52 0a 94 3e 0d a5 6f bb
       -0.09504468 -0.54855543 0.28914124 -0.0036566884
0000f0 2d 5e e1 bd b5 1b d8 3b 23 b7 b3 be 5a 80 d8 bf
       -0.11004291 0.0065951 -0.3510066 -1.691417
000100 e1 f5 36 bf 82 08 33 3c 2f f3 c6 bd 57 4d b9 bf
       -0.7146893 0.010927321 -0.09714352 -1.4476727
000110 70 0f c6 bc 9e 36 fa bc 22 b8 0f 3d 65 3e ee bf
       -0.024177283 -0.030543622 0.035087712 -1.8612791
000120 31 38 6a 3d e2 42 18 ba 69 d9 03 be 38 cf 2e 3d
       0.057182495 -0.0005808306 -0.12875904 0.042678088
000130 fb e7 b1 be 1a bd 9b bb 42 b2 e8 be d3 c5 e5 bf
       -0.347473 -0.0047527673 -0.454485 -1.7950996
000140 a1 3c 45 bf 44 b2 ea bc 5a 3a cd 3c 10 af 90 be
       -0.7704564 -0.028649457 0.025052238 -0.28258562
000150 26 ee 46 c0 d5 65 d4 3a 8f ee f2 be 34 78 5f 3d
       -3.1082854 0.0016204665 -0.4744763 0.054557994
000160 f9 0a 6c 3c ce 71 ee bc 38 68 1a 3e 81 f3 37 3f
       0.014406913 -0.029107 0.15078819 0.7185593
000170 fb 7d 33 bc 32 ac c7 be f9 a2 3c bf 4a 92 a6 bf
       -0.010955329 -0.38998562 -0.73686177 -1.3013394
000180 c1 99 09 bc 82 a6 55 be 6d 88 07 bb a8 ea b7 3c
       -0.008398474 -0.20864299 -0.0020680681 0.02245076
000190 8d 52 e7 3d ca b8 21 be 99 89 1c bd fb 00 89 3b
       0.11295042 -0.15793148 -0.03821716 0.004181025
0001a0 81 6b b4 be ec 3d 5a be 5c 26 84 be e2 21 00 bd
       -0.3523827 -0.21312684 -0.25810516 -0.031282313
0001b0 e2 53 d2 bd db b6 06 3d eb 52 80 bd d8 b7 e0 bd
       -0.102699056 0.03288923 -0.06265815 -0.109725654
0001c0 0a 25 72 bd bb 98 b8 ba 74 0f 9e be 21 d4 64 3c
       -0.059117354 -0.0014083603 -0.30871165 0.013966591
0001d0 6f f9 7f bb 5a 60 08 bf 38 f0 76 bf 6d 2b 4a 3d
       -0.0039058586 -0.5327202 -0.96460295 0.04935782
0001e0 48 7c 38 bf 4a 3e 6d be 5a a8 a5 bb d1 b8 ac bc
       -0.7206464 -0.23168293 -0.0050554695 -0.021084221
0001f0 0c c9 bf 3d 08 e2 9c 3b c8 4d b2 3d 36 b8 74 3c
       0.093645185 0.004787687 0.08706242 0.014936497
000200 a5 17 98 bc 08 d1 52 be 19 88 b9 bc 9d 4d 3b 3d
       -0.018565962 -0.20587552 -0.022647904 0.045728315
000210 7b ce 2e bc a2 60 7c bb 6c 1f c2 3c 03 5f 2c bd
       -0.010669346 -0.0038509746 0.023696624 -0.042082798
000220 76 d5 4c bd 35 b4 53 bd 80 11 d3 3c 06 2c 6c bf
       -0.05000826 -0.05168553 0.02576518 -0.92254674
000230 25 dc 9b be 98 ad f8 bd 11 ad 9b bc da b0 8a 3c
       -0.30441394 -0.121424854 -0.019003423 0.016930033
000240 56 5c 09 be d7 25 ea bd 99 52 2a 3d d2 eb f4 bc
       -0.1341413 -0.114329986 0.041582678 -0.029897604
000250 74 7c f7 bc 10 86 ff 3b 21 eb 4b be b1 24 d4 bc
       -0.030210711 0.007797964 -0.19913913 -0.025896402
000260 86 91 94 3c 36 21 a5 bf 73 60 80 bf 41 a6 05 bc
       0.018135797 -1.290076 -1.0029434 -0.008157314
000270 0b c7 ce 3c 4a 2d a6 bc 01 5f 3f bb ca 36 35 bb
       0.025241395 -0.020285267 -0.0029200914 -0.0027651065
000280 dd aa a1 be 1c 9e 4c 3c 4f dc be bc f7 37 74 be
       -0.3157567 0.012488868 -0.02329841 -0.23849474
000290 49 54 f6 3f bb 43 74 bb 43 18 7a be 10 d2 67 3f
       1.9244472 -0.0037271816 -0.24423318 0.90554905
0002a0 fa 5b cf 3b 98 c9 ec 3d 6a a1 5b 3d ed 00 7d bc
       0.006328103 0.115618885 0.053620733 -0.015442115
0002b0 22 22 be 3c db bd d4 bd 1a cd d6 bd 93 c7 cc bd
       0.023209635 -0.103877746 -0.10488339 -0.09999003
0002c0 39 4d d5 3b c1 32 e4 3c 23 61 e9 bf f4 aa 01 c0
       0.00650945 0.027856233 -1.8232769 -2.0260592
0002d0 98 5b 80 bc a1 af 34 3c e9 bc 8b bc 92 14 8c 3b
       -0.015668675 0.011028201 -0.017057853 0.004274913
0002e0 c6 c3 8e 3c 46 e2 37 3c 45 c9 19 bf 36 7e 21 bd
       0.017427336 0.011223381 -0.6007274 -0.039427005
0002f0 02 ec 5c 3b 83 74 79 3b 20 2b 39 3b 81 79 12 be
       0.0033710008 0.003806383 0.0028254464 -0.14304163
000300 00 17 8b 3a cc a0 a3 3b e3 0e 13 bf ea 8f f8 bf
       0.0010611713 0.0049935337 -0.5744459 -1.9418919
000310 dd 6b 89 bc c4 95 99 be 4d 5f 30 3d d2 d3 b3 b9
       -0.016775066 -0.29997075 0.043059636 -0.0003429936
000320 a0 bf 8a bb 78 fa 1e 3b ff 49 9b 3d bc 9f 59 3e
       -0.0042342693 0.0024258178 0.07582473 0.2125234
000330 0b 34 41 bf ca 7c 77 bd 80 2a 8e 3b 55 ee 69 3f
       -0.75470036 -0.060421742 0.0043385625 0.9137929
000340 ab b3 a5 be 6c 86 87 bf da 77 e2 3c da d4 3c be
       -0.32363638 -1.0587897 0.02764504 -0.18440571
000350 2b f5 b6 bb 00 cf a4 be 80 c3 6f ba 7f d6 e6 bf
       -0.0055834255 -0.32189178 -0.0009146258 -1.8034209
000360 e0 dc 0f be 08 e6 e4 3c 9b 18 cc bc 06 01 04 3c
       -0.14049101 0.027941719 -0.024914077 0.008056885
000370 0a 6d cd bd 07 79 1e 3e f7 7e 27 3c a8 a9 02 bd
       -0.10030563 0.15475856 0.010223142 -0.031900078
000380 95 e1 fc 3d f0 42 ec bc da 46 b4 bc e0 ce d3 3c
       0.12347714 -0.028840512 -0.02200644 0.025855482
000390 56 26 5d bc 33 3e 9f 3c f6 0a d0 bc a4 1d 59 bd
       -0.0134979095 0.019438839 -0.025395852 -0.053006783
0003a0 e5 ca ec bb 47 fd 5f bd ec b4 7c 3c 85 a1 8f bd
       -0.0072263354 -0.054684903 0.0154239945 -0.07013229
0003b0 a6 ea 52 bf b3 94 a9 bc 32 06 a0 bd ec b7 bf bc
       -0.82389295 -0.020700788 -0.07813682 -0.02340313
0003c0 47 3d 2b 3d cf eb 9b 3e 33 4c 8c be e3 86 44 bc
       0.041806486 0.30453345 -0.27401885 -0.01199505
0003d0 2a c5 d2 3c a8 7f 5b 3e 4f 9c d9 bc 37 4a 56 bd
       0.02572878 0.21435416 -0.026563792 -0.05231687
0003e0 3c 5b 14 bd 58 9d 21 bf 97 35 0e bb f5 53 08 3c
       -0.03621982 -0.6313071 -0.0021699423 0.008320798
0003f0 51 07 06 bd 4c ab e0 3d 8b 4d 6e be 05 e2 3e bd
       -0.03272182 0.10970172 -0.23271768 -0.046602268

linear2.bias f4 [3]
000000 fe 5f b8 3f cc 5f 02 c0 ad 9d cc bf
       1.4404294 -2.037097 -1.5985619
